pretrained/predictor.pth (torch, 416519 bytes, 10 tensors)

model.0.weight f4 [128, 400]
00000000: b71d a43b 51b8 ef3a af1d 19bd cf29 213d
00000010: 0994 a03c fc99 67bc bced c23c 9984 d03c
00000020: 842d df3a 237c d13c 3a2c a1bc f1ff 633c
00000030: e9c3 5ebc dc43 f83c 7169 723c 316f 083d
00000040: 09ed dd3c a4ed 043d 061d 403d 83e9 d63c
00000050: bc5e e83c e6cc 233d ac1f b63c d4a3 183d
00000060: 38d1 5a3b 2edd 103d 5714 8cbb c9a4 a73c
00000070: 837f 293d 3435 8cbc 1e20 363c 469a a23c
00000080: 390a 193d 909d 8a3b c53b 0c3c 7708 a03b
00000090: e604 2ebd f9e4 193d 2265 6cbc ec26 333d
000000a0: 749b 433d fc77 f43c 3795 db3b c985 55bc
000000b0: 33ae 8c3c 628d 0cbc 83be b93c d316 ed3c
000000c0: 6f9c 77bc 49dd 1d3d d2c0 533b 03b5 bb3b
000000d0: b197 043c 30eb cf3c 0486 a3bc 169d f1ba
000000e0: 31fb 3c3c 96e2 333d bc05 06bd bfa7 29bd
000000f0: 7637 a93c 89ac 64bc 2ec9 0ebd 944f 393d
00000100: 5b63 2d3d 9c13 cc3c 3c1f 3a3d b36c 973c
00000110: 9ed0 b2bc 7dac 89ba 3f11 48bd 1311 09bd
00000120: 499f 67bc a700 d3bc a635 373d 8bf5 5f3c
00000130: 5333 c63c bc14 963c f7b5 233d 2462 2bbd
00000140: 36f2 833c 7744 1e3d b4fa 1f3d 56a5 ba3c
00000150: 1394 3dbd c952 4ebc 2e88 0a3d b666 f53c
00000160: 8388 ce3c 4e1e 273d f030 d2bb a94b 323d
00000170: 3e1d eebc e65e ef3c 55fe 4abc 7c7f 3dbc
00000180: cad0 eabc cae2 eebc 10eb f53b 99b5 04bd
00000190: 63b4 993c 9623 37bd 6308 8e3c 27f9 cebc
000001a0: b371 f23c 2008 b03c 9ccd 32bc cab5 92bc
000001b0: d6c0 393d fb1b 11bd b888 153b 49b8 453d
000001c0: 336c af3c fd70 d4bb 8559 313b 6235 5fbb
000001d0: efc3 0fbd 4967 123d 8957 2dbd 04be 3b3d
000001e0: d1cc dfbc 711f 4c3d e56e 533c f5fc 22bc
000001f0: 7ed0 4a3d 0c0a ca3c 7bbc e437 ab77 063d
00000200: ee61 4abd 44d1 cbbc 7d05 c6bb 6f7d 1abc
00000210: 4ac6 bcbb ea8e b3bc 2bd3 423c d3cd a13c
00000220: 5d89 ee3b cf78 193d 5144 fcbc d099 9d3b
00000230: 215c 8bbc c8a6 6abb a310 cfbb 8fd7 68bc
00000240: a0dd be3c 8cbb b73c 1e9c 423c 495d 873c
00000250: bd80 083a 1136 23bd fc9f 08bd 56cd 9b3c
00000260: 9ed2 723c b82d 193b 6f93 64bc a01f ed3c
00000270: e987 58bc 90f5 ab3b 02fb 1ebc 8c90 cf3c
00000280: 5237 4a3b d4c3 a7bc be72 82bc f1ee 333d
00000290: 8eae 283d 49ee 3e3d ba3e fdbc 054e 7e3b
000002a0: c7c8 a7bc 79eb 0cbd ff1f 1fbd 7be9 47bd
000002b0: f048 efbb 0e3a 12bd 8744 cdbc 3d1e 94bb
000002c0: 8b31 323d bfef 0bbd 8402 b13a 53e7 7fbc
000002d0: c190 d2bc 8e88 ddbc 849d 043d 09f9 3e3d
000002e0: 834c a43b 3126 3c3c 1459 ccbc 189f 233c
000002f0: 3c98 4c3d a6ef 42bd 0638 3f3d c915 823c
00000300: cef5 bebc 6e01 1a3d ba8a a2bc e00d c43c
00000310: af1d 2cbc a30d 173d 87a5 bfbc 0b1c 00bd
00000320: 8ca4 30bd 1540 16bc 453b 423c d181 653c
00000330: 95a3 30bc 822f 77bc 1ebe d7bc 69e5 4c3d
00000340: db2b 2b3d 2161 e6bc a146 423d d538 3dbc
00000350: 84e7 933a aae0 febb 7c44 f13c de2c 683c
00000360: 15f8 58bc 1f70 2cbd c2dc 08bc 46b9 903c
00000370: 17d1 0abd 8c7d fe3c f7b6 8e3b 44a2 8439
00000380: fe38 463c ae5a 39bd f0ff e8bb d911 20bd
00000390: 23c5 97bb f7b2 e13b 1c0b 493d 853b 713b
000003a0: 1b18 35bd 6934 a73c 3c66 10bd 59d1 11bd
000003b0: c34b 9e3c 5ee5 4c3d 8e66 4abd a63a cc3c
000003c0: 8579 133b 237f cabb 5f8d 3cbd 2e93 323d
000003d0: 19e8 c23c b1a2 073c 9e0e a9bc 6431 123d
000003e0: a274 28bc bc64 2fbd 69a3 c93c 3e8c 233d
000003f0: 889d 3a3a a9f3 33bc 1692 f93c 11a8 b8bc
0.005008425 0.0018289183 -0.037381824 0.039346512 0.019601839 -0.014135834 0.023795001 0.025453852
0.0017027115 0.025571888 -0.01967441 0.013916002 -0.013596513 0.030305795 0.014795647 0.033309165
0.027090566 0.032453194 0.04690268 0.026234394 0.028365485 0.03999033 0.0222319 0.037265614
0.0033388864 0.035367183 -0.0042748856 0.020464318 0.04138137 -0.017115213 0.011116056 0.019848954
0.037363265 0.0042302087 0.008559172 0.0048838216 -0.04248514 0.03757188 -0.014428409 0.04373829
0.047755674 0.02984237 0.0067011374 -0.013032385 0.017172908 -0.00857863 0.02267385 0.028941547
-0.01511298 0.038541112 0.0032310975 0.0057283654 0.008092807 0.0253807 -0.019961365 -0.0018433656
0.011534498 0.04391726 -0.032720312 -0.04141974 0.020656329 -0.013957151 -0.03485983 0.045241907
0.04233108 0.024911694 0.045439944 0.018484449 -0.021827992 -0.0010503676 -0.048844572 -0.03346355
-0.014137098 -0.025757147 0.044728898 0.013669382 0.024194395 0.018320434 0.039968457 -0.04184164
0.016106706 0.038639512 0.03905745 0.022783916 -0.046283793 -0.01259298 0.033821277 0.029956203
0.025211578 0.040800385 -0.006414525 0.043529186 -0.029066678 0.029220056 -0.012389739 -0.011566039
-0.028664012 -0.029160876 0.0075048283 -0.032399748 0.018762773 -0.04471167 0.017337983 -0.02526529
0.029595232 0.02148825 -0.010913279 -0.01790895 0.04534992 -0.035427075 0.0022817086 0.04827145
0.021413898 -0.006483196 0.0027061414 -0.0034058918 -0.035098966 0.03574303 -0.04231981 0.04583551
-0.027319344 0.049834672 0.012904857 -0.009948005 0.04951524 0.024662994 2.7267486e-05 0.032828968
-0.0494098 -0.024880059 -0.0060431347 -0.00942932 -0.0057609426 -0.021918733 0.011891167 0.019751465
0.0072795586 0.037468728 -0.030794295 0.0048095956 -0.017011704 -0.0035804976 -0.006319122 -0.014211549
0.023299038 0.022428297 0.011878042 0.016523974 0.0005207172 -0.039846484 -0.033355698 0.01901881
0.014820723 0.0023373198 -0.0139511665 0.028945744 -0.013215997 0.005247779 -0.0097034 0.02533748
0.0030855727 -0.02047912 -0.015923854 0.043929044 0.041182093 0.046613965 -0.0309137 0.0038803827
-0.02048148 -0.03440425 -0.038848873 -0.04880665 -0.007302396 -0.035699897 -0.02505709 -0.0045202062
0.04350428 -0.034164187 0.0013504778 -0.015619117 -0.02570379 -0.027042653 0.03237678 0.046624217
0.0050140037 0.011483715 -0.02494482 0.009986661 0.04994987 -0.047591828 0.046684287 0.015879529
-0.023310568 0.03759902 -0.01984154 0.023932397 -0.010505124 0.03687824 -0.02339436 -0.031276744
-0.043125674 -0.009170552 0.011854951 0.014008001 -0.0107811885 -0.01508701 -0.026335772 0.05002347
0.04178987 -0.028122487 0.04743064 -0.011549194 0.0011284207 -0.007778247 0.029451601 0.014170853
-0.013242741 -0.042099115 -0.008353414 0.01766647 -0.03389081 0.031065725 0.004355307 0.000252979
0.012098549 -0.045252495 -0.0071105883 -0.03907952 -0.004631655 0.0068877894 0.04908286 0.0036809158
-0.044212442 0.020410733 -0.03525375 -0.03560004 0.019323235 0.05002343 -0.04941421 0.02493031
0.0022502851 -0.0061797067 -0.04603326 0.043597393 0.023792313 0.008278535 -0.020636853 0.035691634
-0.010281714 -0.042820677 0.024614053 0.039928667 0.0007118811 -0.010983386 0.030465167 -0.022541078

model.0.bias f4 [128]
00000000: c7cb a3bc b760 27bd f6a6 493d 3c88 263d
00000010: 689b 493d 2723 c73b 2c9b e9bb d15e 0a3c
00000020: 8dad 28bd ba65 a5bc 5022 dcbb 6468 5ebb
00000030: 475e e93c 9617 5c3b 8510 b3bc b993 1f3d
00000040: 85f3 d3bc 5725 b93c 4cd5 2b3d aaf0 c0bc
00000050: 7a0c 1f3d edcb efbb 0cea 0ebd 769b a03c
00000060: 37b8 bd3c e409 113d 4664 353c 5cb1 0b3d
00000070: 906e 69bc ea45 3ebd 0c90 633c 2eb3 11bd
00000080: 17dc 893c 15ff 8e3c b691 413d c4c9 c13b
00000090: 4b04 4cbd 4e7b 2a3c 9298 49bd 4ecf 15bd
000000a0: 0a38 a33c c313 01bd b753 c3bc fae3 08bd
000000b0: 200e 413d e903 603c 344d 493d cfaf 53ba
000000c0: 05b2 333d 3dc5 0d3d eb2f ad3c 061c 36bd
000000d0: 411b c5bc fc9a 70bc f68c c23b 7ae1 113c
000000e0: fcb7 31bc 81ac 2dbd 884a 073d f815 2dbd
000000f0: 8500 323d f585 b53c 8cdd 76bc a516 aa3b
00000100: d290 853c 400a 1bbd a73e 8f3c 6e68 0dbd
00000110: 5d39 933c 06e7 af3c f4fe 803c b652 d1bc
00000120: 43ef 40bd 0023 423d 4b09 2e3d ec09 15bd
00000130: ded4 163d 0b66 c63b 6a08 15bd a26a 813c
00000140: 3901 dcbc dd32 823c 7c99 2bbd 84eb cdba
00000150: 9cc3 2e3c 759e 02bd 23fc 503c c14a 9cbc
00000160: d834 10bd 6e83 643c 7345 113d b17d 34bd
00000170: 8d69 b5bb 3abc acbc 088d 95bc 3beb 30bd
00000180: 2786 153c e318 913c b921 b2bb f2b3 233d
00000190: 4d13 423d dbb7 debb e53f b0bc b60c 013d
000001a0: 2d8c a03c 0b4d 2a38 cd3a 073c a5e9 2b3d
000001b0: 9a4f f7bc 05d3 84bc fe0f 6c3c ab3c 40bd
000001c0: 835e 5ebc 8605 3f3d b3c4 963c 69e3 39bd
000001d0: e7c1 3c3d 7f0b 473d 4256 da3c 6db0 1fbd
000001e0: 31ba 643c 10de f23c 12e6 29bc 5708 04bc
000001f0: 5943 233d ace5 0dbd 91b6 81bb c6e8 5cbc
-0.01999463 -0.04086372 0.049231492 0.040657267 0.049220473 0.0060771885 -0.0071290936 0.008445458
-0.041181136 -0.020190109 -0.0067179576 -0.0033936733 0.028487338 0.0033583394 -0.021858463 0.03895924
-0.025872955 0.022600813 0.041951463 -0.023552258 0.038830258 -0.007318011 -0.034891173 0.01960538
0.02315913 0.035409823 0.01107127 0.03410469 -0.014247552 -0.046453394 0.013889324 -0.03557127
0.01682858 0.017455617 0.0472581 0.005913945 -0.04980878 0.010405375 -0.049217768 -0.036574654
0.019924182 -0.031512987 -0.02384363 -0.03342054 0.04713261 0.013672807 0.049145892 -0.0008075209
0.043870945 0.03461193 0.021141013 -0.04446032 -0.024060847 -0.014685389 0.005937214 0.008903855
-0.010847088 -0.04240084 0.033030063 -0.04225728 0.043457527 0.022158602 -0.015067469 0.0051906877
0.016304407 -0.037851572 0.01748593 -0.03452342 0.017971689 0.021472465 0.015746571 -0.025552135
-0.047103178 0.04739666 0.04248933 -0.036386415 0.0368241 0.006054645 -0.036384977 0.015797917
-0.026856052 0.015893394 -0.04189442 -0.0015710448 0.010666754 -0.031889398 0.012755427 -0.019078614
-0.035206646 0.013947351 0.035466623 -0.04406518 -0.0055362643 -0.021085847 -0.018255726 -0.043193083
0.009126223 0.017712062 -0.005436149 0.03996653 0.047381688 -0.0067968196 -0.021514842 0.031506263
0.019598091 4.060291e-05 0.008253765 0.041970868 -0.030189324 -0.016213903 0.01440811 -0.046932857
-0.013572338 0.046636127 0.01840434 -0.04538289 0.046083357 0.048594948 0.026652459 -0.038986612
0.013960407 0.029646903 -0.010369794 -0.008058629 0.03985915 -0.03464286 -0.003958531 -0.013483232

model.1.weight f4 [128, 128]
00000000: 7d41 a03d 7f03 8abd 4938 79bd 62fd 58bd
00000010: d985 813d 08a4 3a3d d459 0dbd bb7f 93bd
00000020: 6dbb 833d f731 373d 2ab1 853c 1606 b5bd
00000030: 5da5 56bd 8578 ca3c 8c40 3fbd 933d 8f3d
00000040: 8beb 8abd da59 2fbd f42f 813c b57e 333d
00000050: bca5 883d b443 9d3d 4208 9abc 85ee 6abb
00000060: d72f 853d b3e1 40bd 190a 153d ccba e0b9
00000070: 899b 9e3d 5eb6 15bd 4344 3e3d 7e88 9abd
00000080: fbd4 cf3c 7856 783d 244e 04bd 8045 233d
00000090: 6ac3 6a3c fecb 983d b945 40bd e209 ddba
000000a0: 8d57 8b3d d01a 703d 3ba7 0b3d 7794 0a3d
000000b0: f954 8e3d 59a3 503b 3431 863d ac48 8a3d
000000c0: 5d92 153d a343 94bd 1e99 c43c 8343 cabc
000000d0: 67cb 32bd 1b38 ffbc 5e11 973c 5f01 87ba
000000e0: 78f0 a4bd 3409 3f3d 90a1 583d 3b35 92bd
000000f0: 7c73 883d a05d 853d 7ac9 ce3c 3372 e43c
00000100: 3421 a73d 81cf 83bd 0bdd 213d a971 8f3d
00000110: 8763 90bd 8302 9d3d 5b47 503d 9b1a ccbc
00000120: cdb7 8cbd 2852 a4bc eeda 61bd 2b6b 983c
00000130: 616c 3ebd 25af 2d3d d7eb 07bd 04bb 0dbd
00000140: 52ce 77bd 1580 6abd 4230 c13c eaed 943d
00000150: 0553 523d f8bf 8c3c e1ed 5d3c 4eb0 32bd
00000160: fa4a 42bd 0bff b33c 343c 92bd cadd 91bd
00000170: e38c b23d 85a4 663c 1331 a73d d837 92bd
00000180: 6cf1 4cbd 6787 913c 165c 7d3d c87f 67bd
00000190: c887 7cbd f90f 043d 4a3e 843d 3f32 87bd
000001a0: eccb b33d 8540 9c3b fdd0 2c3c 2569 74bc
000001b0: 0733 c23c ece8 42bc 8bac 81bc d3ec 92bd
000001c0: 0283 90bd 26bc 8b3c df37 92bd 81ff bbbc
000001d0: 746b d93c 9186 493d ffd7 363d ac22 d23c
000001e0: ba50 623c 845b 543d 0941 7dbd 3950 debc
000001f0: 4be5 d13c 6b9d dabc 1386 60bc d56b 153d
00000200: 759e b5bd 7159 b33d b402 d93c c30e 44bd
00000210: da87 7c3d 0c87 a4ba d760 643d 166f 36bc
00000220: fda5 ec3b f764 6ebd df5b 2dbd 70ef b7bb
00000230: 1631 17bd 9a9c 693d 4799 4dbd 216f 293d
00000240: cb68 403d aea1 2d3d 1438 9c3c 7855 843d
00000250: d5eb dcbc e567 c4bc 53ee b2bd 7ce6 943d
00000260: 2ec2 813d 4a24 213c 2b14 a7bd 5cb9 fa3c
00000270: d3b2 72bd 6d17 b63c 4648 78bd 7ad4 823d
00000280: d280 91bd 5c54 8b3d 86b4 f43b cae2 69bc
00000290: cefd 09bc 2a87 683d 26f5 813d ada4 1abd
000002a0: 2dfd 0d3d e487 3d3d 6074 3bbd be18 21bd
000002b0: 37d7 2abd df7e 14bc 1f41 a4bd c1f9 843d
000002c0: 9897 8dbc 65c8 25bd 6939 1dbd 4982 163d
000002d0: bb69 333c 1276 ab3d d49a 853d 55f0 2dbd
000002e0: b41d 9d3c 70b7 2c3d 7416 7a3d 6cd2 7c3d
000002f0: a617 ce3a 3b55 84bd 8127 f33b d055 a93c
00000300: 97b4 1bbd deda a3bd 1473 4e3d ba7e 73bd
00000310: 750c 62bd 15cf 423c 4ebe 3fbd 5e06 0a3d
00000320: 4d98 303d 9245 98bd 40c7 01bd cf9e aabc
00000330: 312d 03bd 7cf4 453d c6b3 a9bb 6549 503d
00000340: 8491 3fbd 28c5 41bc ceee 853d bab3 103d
00000350: 2775 c5bb b5bb 573d 887e 1e3d 24d2 973d
00000360: ecdb cc3c d47c a93c 6509 16bc e5ee a8bd
00000370: 71f4 51bb 703b 66bd 5e4d 8cbd b88c 62bd
00000380: 8abd 3abd 3d5a 17bd a96d aa3d 52b9 873d
00000390: 9c7a 1fbd fd56 2ebd 12a1 953d 8dda 59bd
000003a0: 8eff 393c 96fe aabd 5553 2fbc 8c7a 2fbc
000003b0: 4aff df3c a40f 9b3d 4e20 1c3d c232 913d
000003c0: 300e 0dbd 6006 65bd 5068 7abb 5ae4 dc3c
000003d0: 8cf5 3dbd 17b9 4bbd 106c 0ebd 0e36 5ebd
000003e0: 8766 1ebd c6d6 16bc 5a2f 8ebd 246f 863c
000003f0: 3c60 9d3c 9d83 9ebd 3916 87bd 41a9 bdbc
0.07824991 -0.06738948 -0.060844693 -0.05297602 0.063243575 0.04556659 -0.034509495 -0.07202097
0.06432233 0.044725385 0.01631983 -0.088390514 -0.052403796 0.024715671 -0.046692416 0.06994166
-0.067832075 -0.0428103 0.015769936 0.04382201 0.06672236 0.07678929 -0.018802766 -0.0035847735
0.06503265 -0.047090244 0.036386583 -0.00042863784 0.0774451 -0.036550872 0.04645182 -0.07545565
0.025370112 0.060629338 -0.032301083 0.039861202 0.014328817 0.074607834 -0.046941493 -0.0016863907
0.06803808 0.05861932 0.03409503 0.033832993 0.06949801 0.0031835644 0.065523535 0.06752142
0.036516536 -0.07239463 0.023998793 -0.024690395 -0.04365101 -0.031154683 0.018440899 -0.0010300091
-0.08053678 0.046639636 0.052888453 -0.07139059 0.06662652 0.06511998 0.025242556 0.027886486
0.0816063 -0.064360626 0.039517444 0.07004101 -0.07050233 0.07666495 0.0508493 -0.02491503
-0.06870995 -0.020058706 -0.05514043 0.01860579 -0.046490077 0.04240336 -0.0331839 -0.03460218
-0.060499497 -0.057251055 0.023582581 0.07271941 0.051348705 0.017181382 0.013545484 -0.04362517
-0.047434784 0.0219722 -0.07140389 -0.07122381 0.08718278 0.01407731 0.08163657 -0.071395576
-0.050034925 0.01776476 0.061855398 -0.056518346 -0.06165293 0.032241795 0.06457193 -0.066013806
0.087791294 0.0047684335 0.010547874 -0.014917647 0.023705972 -0.011896353 -0.015829345 -0.07174077
-0.07056238 0.01705749 -0.07139563 -0.022948982 0.026540495 0.0492006 0.044639584 0.025651298
0.013813192 0.05184509 -0.0618296 -0.027137863 0.02562203 -0.02668639 -0.013703841 0.03647979
-0.08868114 0.08757294 0.026490547 -0.04786564 0.061652996 -0.0012552454 0.055756416 -0.011134883
0.007221936 -0.058201756 -0.042323943 -0.00561326 -0.036912046 0.057034113 -0.050195005 0.041365746
0.04697494 0.042390518 0.019069709 0.06461614 -0.026967922 -0.023975322 -0.08736863 0.07270524
0.06335865 0.009835312 -0.081581436 0.030605964 -0.05925257 0.022227967 -0.0606158 0.06388183
-0.07104649 0.068032 0.007467809 -0.014275262 -0.008422328 0.056769527 0.063455865 -0.037754703
0.034665275 0.046272174 -0.04576528 -0.039330237 -0.04170915 -0.009063452 -0.08020233 0.06492949
-0.0172842 -0.040474314 -0.03838483 0.036745343 0.010950501 0.083721295 0.06523672 -0.042465527
0.019179203 0.042167127 0.06105657 0.06172411 0.00157236 -0.06461569 0.0074204807 0.020670801
-0.03801402 -0.0800073 0.050402716 -0.059447028 -0.05518766 0.0118901925 -0.046812348 0.03369748
0.043113995 -0.074351445 -0.03168416 -0.020827679 -0.03202552 0.04832886 -0.0051789014 0.050851244
-0.046769634 -0.011826791 0.06539689 0.03532765 -0.0060259285 0.052669246 0.03869489 0.07413128
0.02500721 0.020689406 -0.009157513 -0.082486905 -0.0032036568 -0.056209028 -0.06850694 -0.05530998
-0.045590915 -0.036951292 0.08321697 0.06627144 -0.03893529 -0.042563427 0.07306112 -0.053186942
0.011352433 -0.0834934 -0.01070102 -0.01071037 0.027343411 0.075713426 0.038116746 0.070897594
-0.03443736 -0.055914283 -0.0038209148 0.026964355 -0.04637675 -0.049737062 -0.034771025 -0.05425077
-0.038671996 -0.009206479 -0.06942625 0.016410418 0.019210927 -0.07739947 -0.065960355 -0.023151996

model.1.bias f4 [128]
00000000: 5cc3 923d 1cfb b0bb a1e0 97bd 4d5f 163d
00000010: 9e05 883c 8c46 a4bd e230 1e3d 40db 4f3d
00000020: 9d66 95bb d2a8 0abc acae bd3c 9e9b 493d
00000030: 7f09 f1bb 7be1 7e3d 37f1 4e3d 2c06 90bd
00000040: 679d 803d e29e 0ebc 0910 983c 3b84 28bd
00000050: ec26 af3c a530 9f3d 7a51 3cbd 8ffa 873d
00000060: ea0b ebbc a9ee 14bd 2764 b33d 029b 0b3d
00000070: 572c a7bd 1e33 38bd 1169 a0bd 0788 a43d
00000080: 6a23 0abd d67e 1bbd 4232 983d f828 543d
00000090: 4c88 983d d4f3 46bd 0457 c93c fadb 933d
000000a0: 61bc 213d 8467 ac3d 6128 203d 3d30 7abd
000000b0: 4132 4bbb fda3 1cbc 6cd4 f43b b594 1fbd
000000c0: e282 0d3d 26a6 5a3d 823e 733d ce2f 81bd
000000d0: a376 1abd 3825 40bd b5c9 47bd b128 ed3c
000000e0: 552f 9fbd 8a76 9cbd 4f20 65bd a5f6 9a3d
000000f0: 3fe3 0bbd 9202 b13c 02f2 a2bd a2b9 e03c
00000100: a124 9cbd c5c9 a4bd c526 5dbd 0e41 6f3d
00000110: c5db 77bd c2b9 5fbd e29e d03c 16ec 9b3d
00000120: c594 5cbd 983c 5f3d f9f8 debc 5f16 843c
00000130: ab3a 0f3c ff51 98bb ff41 38bd 5f74 303d
00000140: f0aa 853c 8382 623d af57 32bd c38a 473d
00000150: 661f 0a3d 3ede eebc 4ddf acbd f79e 2c3d
00000160: dfc7 e73c 6f97 fa3c 8c28 4d3c cb79 b3bd
00000170: 92a5 8fbc 6876 9b3d 904b 41bd 714f 9b3d
00000180: 950c 9cbd 4518 9bbc e175 f6bc 6ae8 833d
00000190: 0851 3dbd faea 373d 5b70 78bd 5647 373d
000001a0: 0d6e 813d 3d34 48bd 117d a6bd 0e7c d6bc
000001b0: ab59 00bc 67f2 59bd 3218 523c d02d a93d
000001c0: 7d18 2b3d 3ef2 8abd 920b 1c3d b5e5 43bd
000001d0: 5304 b13c 0bfa bdbb b6c5 923c 6784 043d
000001e0: 15cc 06bd 5811 aebd b9f4 5dbc fa33 adbc
000001f0: 2efe d5b9 2d04 85bd 1272 49bd 4289 a63c
0.07166168 -0.0054010283 -0.074158914 0.03671198 0.016604241 -0.08021268 0.038620837 0.050746202
-0.0045593516 -0.008463101 0.02315458 0.049220674 -0.0073558684 0.062226754 0.05052301 -0.07032427
0.06280022 -0.008704873 0.018562334 -0.04114173 0.021380864 0.0777295 -0.04597614 0.06639587
-0.028692205 -0.036360417 0.08759337 0.034083374 -0.08162754 -0.044970624 -0.0783254 0.08033758
-0.03372518 -0.037962757 0.07431461 0.051796883 0.074478716 -0.048572376 0.024577625 0.072196916
0.039486293 0.084181815 0.03910101 -0.06108116 -0.0031005295 -0.009560582 0.0074716117 -0.038960177
0.034548648 0.053381108 0.059385784 -0.06307946 -0.037710797 -0.046910495 -0.048776347 0.028950067
-0.077727 -0.07639797 -0.055939015 0.07566575 -0.034152266 0.021607671 -0.079563156 0.027432267
-0.07624174 -0.08046297 -0.05399205 0.05841165 -0.060512323 -0.05462051 0.025466386 0.07613389
-0.053852815 0.054501146 -0.027218329 0.016123949 0.008742015 -0.0046484466 -0.044984814 0.04307973
0.01631686 0.055300247 -0.043540653 0.048716318 0.03372135 -0.029158708 -0.08441029 0.04214379
0.028293548 0.030589787 0.012521874 -0.087634645 -0.017535005 0.075909436 -0.047191203 0.075835116
-0.07619587 -0.018932471 -0.030085506 0.06440814 -0.046219856 0.044901825 -0.060654026 0.044745766
0.06319819 -0.048877943 -0.08129323 -0.0261822 -0.0078338785 -0.05320969 0.012823151 0.08260691
0.0417714 -0.06784485 0.03809697 -0.047826488 0.021608507 -0.0057976297 0.017916542 0.03235283
-0.03290947 -0.08499402 -0.013547116 -0.021142948 -0.00040815905 -0.06494937 -0.04918105 0.020329122

model.3.weight f4 [128, 128]
00000000: 89e1 b0bd 6f7a 833c 104f a039 6989 83bc
00000010: 21fb 10bc f37d 98ba 29cf 6ebd b829 aebd
00000020: 0f06 86bc 4723 1c3c 8a8b 493c dbf4 0b3d
00000030: 8f81 853d 8f51 fb3c 1e5b 30bd e2b6 bfb9
00000040: f9ad 873d a36e 29bb a734 9d3c bf8f 8bbd
00000050: df51 24bd 712c d83c 2335 cbbc 18eb 98bd
00000060: f86f ad3d ef21 aabd febc 6abd e02d 123c
00000070: 1777 84bd 5f9c 3b3d 25c7 b0bc 79bc 0e3d
00000080: 53a8 203d ce01 32bc 19a2 e43a 15aa 01bd
00000090: 287e f8bc aa4c a33d 4fa7 ef3c c5e8 a9bb
000000a0: 2f47 ef3c 17c3 64bc ed8c 9bbd b0a5 563d
000000b0: 07db 83bd f61c dd3c 8457 8abd 970f 4dbd
000000c0: 5a96 e2bb ccc9 a8bd e8b7 3838 8144 18bd
000000d0: 5208 5d3d 7536 b13d a0d0 663c f796 003d
000000e0: f6f0 aeba e217 ab3d 046d b13d 3d44 09bd
000000f0: 4676 1c3d 60d9 663d 8e63 abbd 4d1d 37bd
00000100: 8da2 8d3d 5ba4 4fbc 0e5f 753d f8a8 2a3d
00000110: 4bbc 9abd f48d 53ba eab9 7c3d bf32 a3bd
00000120: 028e 6cbd f0fb 943c 91a9 69bc 3ae1 4cbd
00000130: 86a8 dd3c cada 46bd c36d 3cbd fcdb b43d
00000140: 0095 3dbd a487 253c 1102 8d3c d16c 51bd
00000150: d7d1 f23c 314f 943d 6c53 493d 399f 92bc
00000160: 5360 283d 93cf 4e3d bf21 333c eaad 053d
00000170: 8f64 10bd d90f 7c3d 6480 803d 9f0a 9abd
00000180: f6bc 213d 6573 1abd ddb2 33bd cb58 963c
00000190: 07d7 f83c 8404 703d 46e6 393c 5774 433d
000001a0: 91ba 80bd 9388 8c3d fae1 5c3c e550 073c
000001b0: 5a3b 42bd ce93 f8bc f5ec 0c3d 9883 693d
000001c0: 7133 95bc b69f 2e3d 454a 27bd a601 413d
000001d0: 119c 23bd f596 8d3c 8209 033d cb10 293d
000001e0: 597c f7bc b668 6d3b e39a 8d3b 84eb 6d3d
000001f0: d363 283d 0ca1 a8bc 8efe 75bd 0a9d 63bc
00000200: 9d79 803d 33a1 19bd 5833 803c da27 243d
00000210: 25e4 5a3d f131 28bd ede2 cc3c 640a 81bd
00000220: da28 0ebd cc4e 683d 2f09 963d e5cb 38bd
00000230: b558 b7bc b3d7 55bc 84e2 20bc 4fc7 85bd
00000240: 1ff7 b4bc 51fe 973d c70e 3abd 8c5c 25bd
00000250: af7d 793d 0621 5a3d e35c 3b3d 862e 6fbc
00000260: a8a3 b03c 1927 ab3c 43df 3b3d f181 27bd
00000270: 5897 c13c 6c84 a3bd c0f9 163a 5c68 67bd
00000280: 8e43 08bd 5a53 42bd 12ea 893c 56da 7ebc
00000290: 2b5a 903d 3902 bbbc 733c bbbc 7d03 04bc
000002a0: 05b0 933d 53c0 bd3c 6a7a afbd f6e4 883c
000002b0: 3367 323d 0352 85bc 365d 26bd 5434 93bd
000002c0: 92f2 7fbd 5f82 9a3b 73b5 7cbd 9009 253d
000002d0: 8e21 95bd e65b 143d bf27 b63c 57f1 1dbd
000002e0: 910e 473d 394a 9cbd 88c3 b4bd c8d4 a23d
000002f0: b610 093c f7a4 733d dd4b 84bd 117d 823d
00000300: d6de 983d 248e 813d 80f8 ae3d 46b7 d73b
00000310: 4be8 af3c b1ce 83bb 840b e939 9e6a 64bd
00000320: eccc b23c c8ec 963b 3daa 04bd 9d43 9fbc
00000330: 01dc 773d 2989 493d 701d 38bd a01e 99bd
00000340: a2f9 a6bd 66d5 82bc 4845 213d d862 1cbc
00000350: d8e0 33bc 73e0 09bd ece9 193d dc71 8bbd
00000360: df67 04bd 1e64 203c 4d95 8e3d 5346 703d
00000370: daf1 a43d e78a 44bd 34d5 61bd 86b2 aabd
00000380: adad 9fbd 9692 3a3d 258a 99bd 406a 4f3a
00000390: 4f4b 28ba 73da 69bd 7fa1 4e3d c7af 683d
000003a0: 3826 a8bd c9bc 6ebd 5162 a9bc 925f 9dbd
000003b0: 1beb 6dbd e1e3 eebc 5430 b33d c7bb f4bc
000003c0: 0ee6 873c 3839 8d3b bdcf fb3b f679 3cbc
000003d0: 1c8a 7c3d 1832 c73c 3c2c ad3c 2a4c 8f3d
000003e0: 723f 6dbd 44ff a2bd 77f9 a6bd 3cd4 07bd
000003f0: 4ba4 e6bc 1f3d aabd c346 9a3d 7fbf b13d
-0.086367674 0.016049592 0.00030576484 -0.016056733 -0.008848936 -0.0011634215 -0.058303032 -0.08504051
-0.01636031 0.009529895 0.012301335 0.03416906 0.06518852 0.030678539 -0.043055646 -0.00036566617
0.066249795 -0.0025853298 0.019190146 -0.06814527 -0.04011714 0.026388379 -0.024805611 -0.074667156
0.08468622 -0.083072536 -0.057309143 0.00892207 -0.06468027 0.045803424 -0.021579335 0.03484771
0.039223026 -0.010864688 0.0017443328 -0.031656343 -0.030333593 0.07973607 0.029254584 -0.005185219
0.029208748 -0.013962529 -0.07595239 0.052404106 -0.064382605 0.026991349 -0.067549735 -0.050063696
-0.006914896 -0.08241615 4.4040295e-05 -0.037174705 0.053963013 0.08652965 0.014087826 0.03139397
-0.0013346958 0.08354165 0.08663371 -0.033512343 0.03819873 0.05635965 -0.08368598 -0.044705678
0.0691577 -0.012673463 0.059905104 0.041665047 -0.07555445 -0.0008070164 0.06170074 -0.079686634
-0.057752617 0.01818654 -0.014261619 -0.05001948 0.027057897 -0.048548497 -0.046003114 0.08831021
-0.046284676 0.01010314 0.0172129 -0.051129166 0.029641075 0.07241667 0.049151823 -0.017898189
0.041107487 0.050490927 0.010933339 0.03263656 -0.03525215 0.06153855 0.062744886 -0.07521557
0.039486848 -0.037707705 -0.04387175 0.018352887 0.03037597 0.058598056 0.011346405 0.047718372
-0.06285585 0.06861987 0.013481611 0.008259033 -0.047419883 -0.030343916 0.034405667 0.057010263
-0.018213006 0.04263278 -0.040842313 0.047120713 -0.03994376 0.017283896 0.03199149 0.04127578
-0.03021066 0.0036225743 0.0043214425 0.058085933 0.041110825 -0.020584606 -0.060057215 -0.0138924215
0.06273196 -0.037507247 0.015649483 0.040077068 0.05344023 -0.041063253 0.02501055 -0.0630081
-0.034706928 0.05671577 0.073259704 -0.045116324 -0.022381166 -0.013051915 -0.0098196305 -0.06532156
-0.022090493 0.07421554 -0.04542425 -0.040371463 0.060910877 0.05325415 0.04574288 -0.014598494
0.021562412 0.020892667 0.045867216 -0.040895406 0.023631737 -0.07984242 0.00057592615 -0.05649601
-0.03326755 -0.04744277 0.016835246 -0.015554985 0.07048448 -0.022828208 -0.022855973 -0.008057472
0.072113074 0.023162996 -0.085682705 0.01671074 0.04355545 -0.016274458 -0.040616237 -0.07187715
-0.062487192 0.0047152485 -0.06169648 0.040292323 -0.07281791 0.036220454 0.02223575 -0.038560238
0.048597876 -0.07631344 -0.08826357 0.07950741 0.008365801 0.059483495 -0.06459782 0.06371511
0.074643776 0.06325939 0.08543491 0.006583127 0.02147307 -0.0040224423 0.00044449803 -0.05576574
0.02182623 0.0046058632 -0.032388914 -0.01944142 0.060512546 0.04920307 -0.04494995 -0.074765444
-0.081530824 -0.015970897 0.039372712 -0.009545051 -0.0109789 -0.033661317 0.0375766 -0.06808826
-0.03232562 0.009789495 0.069620706 0.058660816 0.08053942 -0.04798403 -0.055134967 -0.08334832
-0.07796798 0.04554995 -0.07497052 0.0007912256 -0.0006419913 -0.057093095 0.050446983 0.05680826
-0.08210415 -0.05828551 -0.020676764 -0.07684244 -0.058085542 -0.029161396 0.08749452 -0.029874695
0.01658919 0.0043097995 0.0076846764 -0.011503687 0.06165515 0.024315879 0.021139257 0.06996949
-0.057921834 -0.07958844 -0.081530504 -0.033161387 -0.028154513 -0.08312439 0.07533028 0.08679103

model.3.bias f4 [128]
00000000: 628e 293d c42a 883d 8fbb 5db9 6cdb 813d
00000010: a0a3 f7bc e22a 223d a93b 14bb 33af 653d
00000020: 16bb 37bd b0cc 1d3d b5d6 d13c fb69 683d
00000030: 3547 99bd 5fc0 2cbb 632e 9cbd aec0 403c
00000040: ed66 05bd abba 5f3d d215 353d bb6d 883d
00000050: ab71 ed3c ab63 c73c 6db4 b0bd 037a f43c
00000060: ff41 eb3c 838f 143d a5a5 803d 8ded 8c3b
00000070: 7f1c 8ebd c648 09bd 9ae4 863d d116 803c
00000080: a596 6cbd a1df 30bc db5f abbd 5b55 b43c
00000090: 2981 74bd b148 183d aeb2 5e3d 9723 973d
000000a0: 35e3 0d3d a11d f83b 505f 21bc 7bb1 09bd
000000b0: 8f8b 313d 8f8b 4ebd 933a 2e3d 2b63 553d
000000c0: 9ee9 753d bd45 a2bd 11e5 53bd 28c6 8dbd
000000d0: 2b39 7e3d 6a66 babc 9f6e 9cbd 486d c8bc
000000e0: 8ae3 543d 3ddb 0cbc 8119 b23c 3cbc be3c
000000f0: 8b66 433d babe 193d 43e3 b1bd 4a9f aabc
00000100: b0a7 643d ed7c 773d 10e5 e83c b2c9 d5bb
00000110: 6c6b a6bd 182c 87bd eba7 9f3c 9ca0 d5bc
00000120: 2c28 a13d 9143 adbc 2c3a 95bd 8b56 833d
00000130: e823 a93c 0f49 a7bc 5e36 12bd 888d cebb
00000140: e757 e9bc a9e5 2ebd 8fc0 a93d dc34 93bd
00000150: b4e9 58bd 1f81 b23d 6cb6 78bd 84a7 e03c
00000160: 97d7 113d c944 543d 4070 87bc 4892 953d
00000170: 0567 6e3c 378f 7c3d 1b10 95bd 4e44 43bd
00000180: 397a 0ebd 87b3 72bb a7e1 623d 2506 24bc
00000190: ef5c 9a3b ccde 5f3d 7690 59ba 4057 8e3d
000001a0: 266e b0bd 8cd1 88bd aa1e f0bb 5288 66bd
000001b0: 6910 cc3c 832d b3bd 9f67 99bd bfed 8cbd
000001c0: d769 9d3d be34 9c3d baea 5d3d 8902 823d
000001d0: 6993 5bbc aa7c 69bd 1303 393d 6156 af3d
000001e0: a38c ad3d d896 aa3d 7574 6a3d 2c6d 73bd
000001f0: ff9b 6d3d 2050 e7bc f397 1e3d fcd9 b0bd
0.041395552 0.06648782 -0.00021146073 0.063406795 -0.03022939 0.039591677 -0.0022618568 0.056075286
-0.044856153 0.038525283 0.025615076 0.056741696 -0.07484285 -0.002635978 -0.07626035 0.011764688
-0.03256886 0.05462138 0.044210263 0.066615544 0.028984865 0.024339518 -0.086281635 0.029843336
0.028717993 0.036269676 0.06281594 0.004300779 -0.06939029 -0.033516668 0.06586571 0.01563588
-0.057760853 -0.010795505 -0.08367892 0.022013357 -0.05969349 0.0371787 0.05436962 0.07379835
0.03464051 0.0075718914 -0.009849384 -0.033616524 0.043345984 -0.050426062 0.04253633 0.052096527
0.060037248 -0.07923458 -0.051732127 -0.06922561 0.06206624 -0.022753913 -0.07638287 -0.024466172
0.05197481 -0.008597192 0.021740677 0.023283117 0.047705214 0.037535407 -0.08685925 -0.020827908
0.05582398 0.060421873 0.028429538 -0.006524288 -0.08125958 -0.06600207 0.01948925 -0.026077561
0.0786899 -0.021150382 -0.07286486 0.06412991 0.020647004 -0.02042058 -0.03569638 -0.006303493
-0.028484298 -0.04269949 0.08288681 -0.071878165 -0.05295725 0.08716034 -0.060720846 0.027423628
0.035605993 0.05182341 -0.016533017 0.073032916 0.014550929 0.061660018 -0.072784625 -0.047672562
-0.03478453 -0.0037033276 0.05539098 -0.010011231 0.0047107856 0.054655835 -0.00082994194 0.06950235
-0.08614759 -0.06680593 -0.007327874 -0.05628235 0.024910169 -0.08748915 -0.07490467 -0.06881284
0.07686203 0.07627247 0.05417893 0.0634814 -0.013401845 -0.057003655 0.045168947 0.08561397
0.0847409 0.083295524 0.05723997 -0.059430286 0.058010098 -0.028236449 0.03871913 -0.08635327

model.5.weight f4 [128, 128]
00000000: dfa7 87bc 0415 d63a 4896 4e3d 3c83 353d
00000010: e30e 9dbc b971 9f3d c64f 873d 5038 2bbd
00000020: 31c1 833d cf8f a2bd 49ea 693d e747 85bd
00000030: 4583 17bd 9c9a a53d 0678 86bd ee48 7b3d
00000040: 3a72 8dbd 7775 833c 6b2f 683d 3048 8ebd
00000050: 3e68 8dbb d966 9cbd 7a7c f3bc 57c2 3abd
00000060: e16a 64bd 22e2 a53d a72a 8ebd 8318 213d
00000070: 2d46 2d3d e6a0 c03c 20fc a8bd 89d5 923d
00000080: 801d b43d b181 673d 5a35 9b3d f8c3 283d
00000090: 430c 01bd 4c01 5c3d 756a b3bd b647 923d
000000a0: 5d92 97bd b0b6 9fbd 7b0c 2d3d 7b78 953d
000000b0: fa65 863d 79f7 183d f11a a0bd 448b a3bd
000000c0: 83dd 4ebd 98fc 613d 2bb1 5c3d 9156 83bd
000000d0: 68fd cf3b 4b39 8a3d 2c04 f1bc e698 6a3d
000000e0: b95e 3dbd 1a2c 3abc 3d0c 9cbd 6338 73bd
000000f0: dac6 87bc d978 723d ba98 9cbd c09b afbc
00000100: 7d3d c73c 8350 7c3d 8299 5bbc 9c19 a53d
00000110: 621f 6b3d ca03 13bd 9570 a73d e27d a1bd
00000120: ab92 893c bdae 81bd d8b7 7d3d eb04 243d
00000130: b3fc abbd 0a1e b33c 30dc 8ebd 506c a23d
00000140: 32b3 55bd f35b 49bd db17 aebd 34a9 3c3d
00000150: 55d1 7bbb cd4f 85bc eb0d 163d 1deb 893d
00000160: 6581 b6bc 2bea bcbc dd5d 4f3b 077f 65bb
00000170: 368a 43bb f8e6 f2bc be64 39bc e53c 8a3d
00000180: fb18 89bb 183a 023c 8aac 91bd fa99 69bd
00000190: ee9d 9a3d c9b4 d5bc caa0 a2bc 69b0 053c
000001a0: 9765 6abd b048 5bbd 97f7 d83c 30e2 9b3c
000001b0: 9902 02bd c62d ae3d 3e2f 35bd e10c 1cbc
000001c0: 9da7 73bd a3fd 68bd 855c 11bd bd2b 1a3c
000001d0: 91c5 403d 1efe 393d c151 dc3c 814d 333d
000001e0: f977 813c 8f6b ab3d 75b3 81bd 1afb 39bd
000001f0: be87 7abd 59e6 6e3d 1897 213d 5531 5f3d
00000200: 2ea6 6f3d 9c30 ad3c 6172 ef3c ff45 9dbc
00000210: 0fe6 3e3d e89a f33c f0b2 663c a404 22bd
00000220: cc13 0b3d 23e4 29bd a8ef e5bc 44d0 70bd
00000230: 97bd 853d 172c 7bbd e599 aebd 4394 5bbd
00000240: 2e7a 8e3c aab7 8a3c e03c 3ebb ad9b 283d
00000250: 1834 5d3d bed4 f6bb f2dd a4bd adca 56bd
00000260: 1614 7cbb d3e1 31bc 97c5 35bc 6b04 44bd
00000270: e398 a43d 0612 6d3d 3b08 b03d 73cd b1bd
00000280: b508 20bb 3f2d 9fbd 7803 9b3d 8b22 883d
00000290: 0cea a73d bcc4 6bbc aa69 afbd 7599 473d
000002a0: 4d00 7ebd 1fe3 41bd 8290 22bd c56d 893d
000002b0: 7686 8b3c 45e1 92bd 2d76 e7bc feb7 95bd
000002c0: 598d 5c3d 160a 7b3d 8ea3 a73d fa9b a23d
000002d0: c06b 463c 9559 3dbc 3ad2 5cbd 6763 1cbc
000002e0: fed4 a53c 74e1 b0bd 6d17 17bd e863 9c3d
000002f0: 90df 713d 92f0 d5bc 1332 f83c 5e2c 86bd
00000300: 2fb7 aa3d f573 593d 0836 cb3b 4a37 13bd
00000310: 1a10 413d af2c afbd 656a 08bd 7cb8 85bd
00000320: 7a7a 80bc 24b6 92bd 4a2d a73d e94f edba
00000330: 0c05 163d 644c 9e3d 38b4 103c 9e25 82bd
00000340: 575e f9bc 2094 e1bc 15ad 8d3d 3ae2 833a
00000350: 6c81 783c 2c25 0fbd f5d5 3fbd 50b5 6abc
00000360: 1341 983b ca05 35bd 7d07 b03d 8ee6 a6bd
00000370: 8a1b 68bd 0b7f 0cbd 56a9 8cbd cda5 7bbd
00000380: 0fa6 613d bd2e 8a3d 8b9a f93c 8360 143d
00000390: 47bd b4bd fb3d f4bc 9aaf 873c dc02 a5bd
000003a0: aadd b13d af10 fbbc 0d4f 333c 9e52 4b3c
000003b0: 445f 373d ebd5 ba3c ea2c 52bd 19db 833d
000003c0: 6902 56bc 5404 6e3d 21a7 0c3d be88 3a3d
000003d0: 2501 cb3c 4ffb 313b db56 a6bc c990 a3bc
000003e0: 1843 5cbd a25f f5bc aa07 a5bc 2831 a63d
000003f0: 9e91 9abd c636 53bc ea31 28bd 7add 0bbd
-0.01655954 0.0016333167 0.050436288 0.044314608 -0.019172138 0.07785363 0.066070125 -0.04180175
0.06433333 -0.079375856 0.057108197 -0.06507855 -0.036990423 0.0808613 -0.065658614 0.061348848
-0.069065526 0.016047223 0.056685846 -0.069473624 -0.004315405 -0.07636804 -0.029722441 -0.045595493
-0.05576599 0.08099772 -0.06941729 0.039330017 0.042303253 0.023514222 -0.08251214 0.07169635
0.08794689 0.056520168 0.075785354 0.041202515 -0.031505834 0.053712174 -0.087605394 0.07142584
-0.074009635 -0.07798517 0.04224823 0.072983705 0.06562419 0.037345383 -0.07817639 -0.07985547
-0.05050422 0.055172533 0.053879898 -0.064129956 0.006347347 0.06749209 -0.029420935 0.05727472
-0.046232913 -0.011363054 -0.07619522 -0.059379946 -0.016574312 0.05919728 -0.07646318 -0.021436572
0.024321312 0.06160022 -0.013403298 0.08061525 0.057402976 -0.035892285 0.0817577 -0.07885338
0.01679357 -0.06332157 0.061942905 0.040043753 -0.08397808 0.02186491 -0.06975591 0.07930815
-0.052172847 -0.049159955 -0.08500644 0.046059802 -0.0038424332 -0.016273404 0.036634367 0.067342974
-0.022278497 -0.023060879 0.003164164 -0.003501834 -0.0029837019 -0.02965115 -0.011315523 0.06749896
-0.004183886 0.007948421 -0.07112987 -0.05703161 0.07549654 -0.026087182 -0.01985206 0.008159735
-0.05722579 -0.053536117 0.026485248 0.019028753 -0.03174076 0.08504824 -0.044234507 -0.009524555
-0.05948602 -0.05688251 -0.035488624 0.009409842 0.047063414 0.04540836 0.026894452 0.043775085
0.015804278 0.083701245 -0.06333057 -0.045405485 -0.06116461 0.058325145 0.039450735 0.054490406
0.05850809 0.021141343 0.029229345 -0.019198416 0.04660612 0.029736951 0.014080748 -0.039555207
0.033954427 -0.041477334 -0.028068379 -0.058792368 0.06530302 -0.061321344 -0.08525447 -0.05360819
0.017392244 0.016933281 -0.0029027984 0.04116409 0.05400476 -0.007532685 -0.08050145 -0.05243938
-0.003846412 -0.010857063 -0.011094472 -0.047855776 0.08036973 0.057878517 0.0859532 -0.086817645
-0.0024419252 -0.07772302 0.07569021 0.066472135 0.08198938 -0.014390167 -0.08565076 0.048730332
-0.062012006 -0.04733574 -0.039688595 0.0671039 0.01703189 -0.07171873 -0.028254593 -0.07310484
0.053845737 0.061288916 0.081854925 0.079399064 0.012110651 -0.011557003 -0.053911425 -0.009545184
0.020243164 -0.08636752 -0.036887575 0.07636243 0.059051096 -0.02611569 0.030297315 -0.06551431
0.08335721 0.0530891 0.0062015094 -0.0359414 0.047134496 -0.085534446 -0.03330459 -0.06529328
-0.015683401 -0.07163647 0.08162935 -0.001810548 0.036625907 0.07729414 0.00883203 -0.06354831
-0.030440493 -0.027536452 0.069177784 0.0010061928 0.015167575 -0.03494756 -0.046834905 -0.014325455
0.0046464293 -0.044194974 0.08595178 -0.081494436 -0.05666689 -0.034300845 -0.06868236 -0.061437417
0.055090006 0.06747196 0.0304692 0.036224853 -0.08825164 -0.02981471 0.016563226 -0.08057186
0.08684857 -0.030647604 0.01094414 0.012409834 0.044768587 0.022807082 -0.051312365 0.06438274
-0.013062098 0.058109596 0.034339074 0.045540564 0.02478082 0.0027157848 -0.020305088 -0.0199665
-0.053774923 -0.029952828 -0.020145256 0.081148446 -0.075473055 -0.012891477 -0.041063227 -0.034146763

model.5.bias f4 [128]
00000000: fdfb 9fbd a986 8bbb 53ca b23d 0c40 9e3c
00000010: 19c8 a0bd 2f1c b6bc 7a13 70bd 49f3 81bc
00000020: 9212 6f3d 83af 303d a9e9 afbd 8f21 b2bc
00000030: 8ed8 1f3d 51cf 973d 6293 aa3d 3c93 af3d
00000040: 45aa 133c 95dd a1bd cf62 6f39 3d5f 78bd
00000050: e954 f83c e387 933d 81d9 2a3b b863 aabd
00000060: bba1 873d 59a3 823d 2f86 4b3c 14a1 a03c
00000070: 4d9c 403d 2099 98bc 84b3 1dbc 9978 97bd
00000080: 1dbc 60bd cc78 a0bc 112b 9abd ace8 943d
00000090: 66cf 7e3c 1424 bbbc 23fa 29bd f463 fe3c
000000a0: 0ae0 7a3d 7bb3 6f3d 258f 9f3c c5c8 4bbd
000000b0: 5628 ee3b d4ff 91bc c315 b23d 4502 9ebd
000000c0: f709 00bc 50de 9ebd c668 993c cd20 9d3d
000000d0: 9ae1 13bd 788a 833d b8a5 96bd f224 3bbd
000000e0: b14b a7bc 4217 34bd 99b5 85bd c14c 843c
000000f0: 6c1f 6cbd e585 29bd a348 a23d 8325 fabc
00000100: 0616 60bd c27a 48bd 0e59 3b3d cb9f 5b3d
00000110: 4a0e 773d 020d 233d f8c8 68bc 698c 453c
00000120: e80c d6bc 5aa0 9dbc 40be 2fbc 3822 cebc
00000130: 6786 8d3c e37f 25b9 3030 1b3d e2c1 953d
00000140: 9268 693d c5b9 8d3c b3bb eebb 5b62 d63c
00000150: f18f a53d 23df 9cbb bebc 78bd c8b1 8b3c
00000160: fc31 35bc 3063 ddba d6cd a3bd 1382 fe3c
00000170: bc41 f9bc 20b0 60bd 9c9b 47bd 41d0 0fbd
00000180: ba13 69bd fab9 d33c e648 0c3c dc19 a3bb
00000190: 82a0 543d 2f08 1fbc 52f8 893c 0ff9 afbd
000001a0: 10cc 52bd 9c9f 9cbd 8daf 74bd d88e faba
000001b0: 1233 053c e608 7c3d f40f cabc afa8 8c3c
000001c0: b972 31bd b78f 523d 3c23 07bd f6a5 7d3c
000001d0: 0c56 8b3d d4c3 60bd 2dcd 9c3d 8107 943d
000001e0: e55f d33c 8eeb 8d3d f0b4 47bc af71 5d3d
000001f0: cff1 c53c 0cad 8ebc 6b0d 0fbb 58db 2abd
-0.07811735 -0.004257996 0.087299965 0.01931765 -0.078506656 -0.022230236 -0.058612324 -0.015863078
0.05836732 0.04313613 -0.08589489 -0.021744518 0.039024882 0.07412589 0.08328892 0.085730046
0.009012763 -0.079035915 0.00022829625 -0.0606377 0.030313926 0.07203653 0.0026069584 -0.08319801
0.066226445 0.06378812 0.012422129 0.019608058 0.04702406 -0.018627703 -0.009625319 -0.07396049
-0.0548669 -0.01958885 -0.075277455 0.07270941 0.015552377 -0.022844352 -0.041498315 0.03105352
0.061248817 0.058520775 0.019477436 -0.049752016 0.007267992 -0.017822184 0.08695557 -0.07715277
-0.007814876 -0.077572465 0.018726718 0.07672272 -0.036103822 0.06422895 -0.07355827 -0.04568953
-0.020421835 -0.043967493 -0.06528778 0.01614988 -0.057647154 -0.041387457 0.079240106 -0.030535465
-0.054708503 -0.048945196 0.045739226 0.053619187 0.06031636 0.039807327 -0.014208071 0.012057402
-0.026129201 -0.0192415 -0.0107265115 -0.025162801 0.017276002 -0.00015783268 0.037887752 0.07312371
0.05698449 0.017300496 -0.007285559 0.026169946 0.08084095 -0.004787342 -0.060726874 0.017052546
-0.0110592805 -0.0016890522 -0.079982445 0.031067884 -0.030426852 -0.054855466 -0.048732385 -0.035110716
-0.05690358 0.025845516 0.008562302 -0.004977448 0.051910885 -0.009706541 0.016842041 -0.08592426
-0.05146414 -0.076476306 -0.05973773 -0.0019116057 0.008129852 0.061531924 -0.02466581 0.017170278
-0.0433223 0.05140659 -0.032992586 0.015481463 0.068035215 -0.054874256 0.07656322 0.07227994
0.025802562 0.06929694 -0.012189135 0.054063495 0.024163155 -0.0174165 -0.0021828066 -0.04171309

model.7.weight f4 [20, 128]
00000000: 7eef 54bd baa7 88bd dbfb 85bb b836 163c
00000010: 6ad0 73bd e095 91bd dbb5 57bc 85a4 59bd
00000020: 939a 42bc a50f 1f3d 3871 a63d 4cd8 ee3c
00000030: eecb bcbc 0965 a23d 90d3 1b3d 5a6b ec3c
00000040: 7a07 78bd dc1c 20bd bb65 913c c9f3 9b3d
00000050: 51fb 4e3d ee41 9abd da47 87bd 2874 1bbd
00000060: 5856 53bd bb23 3cbd c4c5 8ebd e64a 80bd
00000070: 3916 edbc f9fe 8b3d 5ade 8b3d d3a5 983d
00000080: 16b4 9b3d be67 5e3d c868 a9bd 817e 973d
00000090: 3980 c63c d01b 73bd db48 acbc 927c 9d3d
000000a0: 702d ac3d 26ea ee3c 0e79 973c f5e2 a03d
000000b0: 98f8 e7ba 4594 443d aa23 9d3d 4551 aebd
000000c0: 2dcd 49bd 4942 0c3d 2e6f 9c3d 03e1 ecbc
000000d0: ccba 2fbc ef3e 123d 81ba 87bd d917 7d3d
000000e0: 7d92 92bd 129b cc3c 43cf 823d d0f0 df3b
000000f0: 72f2 14bd 2795 b13d d464 46bc 1257 62bd
00000100: 77f2 71bd 65ee 50bd 7734 7e3d 493d 603d
00000110: 2700 76bd 4df3 113d 9594 263d b0ef a13d
00000120: 6546 f5bc aa96 53bd 4589 693c 9d51 d03c
00000130: 805d 75bc 239b 7ebd f0b9 263c d02b 83bd
00000140: 57f8 993d 9588 48bd 6482 15bd 0139 ffbc
00000150: b5f3 93bd 44e8 653c f77b 333d 66a9 67bd
00000160: 8999 cd3c d806 9cbd 51a0 393d c379 b4bd
00000170: a0cf 973c f283 94bc 5e04 0abd 6731 883c
00000180: 9bbd 4fbd abf9 773d bda5 a63d fede 35bd
00000190: 3e63 61bd d6e0 d939 53d2 9c3c e643 513d
000001a0: 89a8 a63c b156 58bd 8f1f f33c a927 853b
000001b0: efdc ad3c 41fc 57bd 16ca 1a3c f780 6abd
000001c0: a612 2cbd ecca 8abb d5d5 9c3d c5ac 13bd
000001d0: 2418 213d fcaa babc c999 4bbb bd15 d8bc
000001e0: d997 b43c 7e15 ac3d d5c4 c6bc f260 ae3c
000001f0: 721d ac3d a2a0 703d 450c 893d ca72 0bbd
00000200: ce1a 173d 540d d6bc 5e52 313d 480d 833d
00000210: 1abd 0cbd 8dbc 5a3d a94a cb3c 8e90 7c3c
00000220: 6e3f fc3c cafd 343c ed1f 96bb c25f 803c
00000230: a2f8 2d3d 889b 72bd 6f60 913d 9ce6 36bb
00000240: 70e7 adbd cc2c 2bbd b624 1ebd 9e26 94bd
00000250: a1c7 913d 2792 803d e0f2 b43d 54f6 8d3d
00000260: e7cf fcbc 5c0c 823c 887e 493d 4726 7c3d
00000270: 215b 483d 9813 6e3b 82a2 86bc 48af 12bd
00000280: a0b8 debc c8a0 2d3d db5d 8fbc 699b 4fbc
00000290: ba75 d83c d96d 2e3d dc61 113c b030 13bc
000002a0: 91f3 183d 02b8 163d b118 373d 9b6f 8ebd
000002b0: 6215 cbbc 37f6 a03d 4268 56bc 3b68 863d
000002c0: c744 a83c 6418 293d 741a 7d3c 3c5c 8f3d
000002d0: 64b0 69bd 89bd d5bb c49c 443d f89e 843d
000002e0: 7c17 90bc 6149 a4bd 2245 a53d 14f3 853d
000002f0: 39a6 ad3d 131c cc3c 7dea 21bc b46c ab3d
00000300: 44fb 333d 5c4a 43bd 62ea 9abd 835a 78bd
00000310: c210 a33c 3404 c13c 84cf 19bd 3f04 6b3d
00000320: 99cc 5fbd e293 d9bc 13df 883c 966c 423d
00000330: 6f61 d53b f8c5 2ebd c992 363d 98dd b3bd
00000340: 53ce 6bbd 8d08 00bc 5043 c33c 5773 a4bd
00000350: 50af 60bd 51f5 093d cd5e 5cbd 63c8 1a3d
00000360: d50a 08bd f41e a03d c6b8 03bc 31a4 7dbd
00000370: 3cb3 73bc fa37 36bd 776b 8cbd 57ef 13bd
00000380: b1f3 9fbd 7be1 53bd 5ad8 083d dd18 eb3b
00000390: 00c9 f83c 4fea bebc 3914 a23d 1a71 42bd
000003a0: 8bf7 2b3c 1937 c4bc 605f 7ebd dcab cbbc
000003b0: 8057 1d3d 1791 843c e4f3 863c 69ef f5bc
000003c0: 6d6e 4abc 0ad8 52b8 3117 e5bc 48cd e93c
000003d0: a66b 24bd 296c 7b3d b84d 9bbd 5e35 07bd
000003e0: 40e5 5e3d 989e aebc 44ab 4f3c 7060 923a
000003f0: fc8e 9c3d 6505 26bd 4043 253c 1a3e 523d
-0.05198621 -0.06672616 -0.0040888614 0.009168319 -0.05952493 -0.071086645 -0.013165916 -0.053135414
-0.011877674 0.03883328 0.081270635 0.029155873 -0.02304646 0.07929427 0.03804356 0.028859783
-0.060554005 -0.039090022 0.017748704 0.07614858 0.050532643 -0.07532106 -0.066055015 -0.037952572
-0.051596016 -0.045932513 -0.069713145 -0.06264286 -0.02894126 0.068357415 0.068295196 0.074535035
0.07602708 0.054298155 -0.082719386 0.073971756 0.024231063 -0.059352696 -0.021030834 0.076897755
0.08407104 0.029164385 0.01849034 0.078557886 -0.0017697988 0.047992963 0.07672818 -0.08511595
-0.049267936 0.034242902 0.07638393 -0.028915888 -0.010725688 0.03570455 -0.0662737 0.06179032
-0.07156847 0.024976287 0.06387188 0.006834127 -0.036364026 0.08671027 -0.012109 -0.055258818
-0.059069123 -0.0510086 0.062061753 0.054745946 -0.06005874 0.03563242 0.040669043 0.07907045
-0.029940793 -0.051657356 0.014253919 0.025429541 -0.014975905 -0.06215967 0.010176167 -0.06404841
0.0751807 -0.04895838 -0.036501303 -0.031155111 -0.07224218 0.014032427 0.043819394 -0.056558035
0.025097625 -0.07618493 0.045318905 -0.08812287 0.01853162 -0.018129323 -0.03369557 0.01662512
-0.05071793 0.060540836 0.08137081 -0.044402115 -0.055026285 0.0004155698 0.01914326 0.051090144
0.020344036 -0.05281705 0.029678134 0.0040635657 0.021223513 -0.052730802 0.009447595 -0.057251897
-0.042009972 -0.004235616 0.07657973 -0.036053438 0.039329663 -0.02278661 -0.0031067005 -0.026377553
0.022045063 0.08402537 -0.024263779 0.021286462 0.08404054 0.05874694 0.06691793 -0.03404502
0.036890797 -0.026129402 0.043291442 0.063990176 -0.03436003 0.053402472 0.024815874 0.015415324
0.030791964 0.011046836 -0.0045814426 0.01567066 0.042473443 -0.059230357 0.070984714 -0.002790845
-0.08491409 -0.04179077 -0.03860923 -0.07233928 0.07118154 0.06277876 0.08835387 0.06931749
-0.030860854 0.015875034 0.049192935 0.06155994 0.048915032 0.0036327597 -0.016434912 -0.035811692
-0.027187645 0.04238966 -0.017500808 -0.01267133 0.026423324 0.042585228 0.008873429 -0.008983776
0.037341658 0.036796577 0.044701282 -0.06954881 -0.02479047 0.07859462 -0.01308638 0.06562849
0.020540608 0.041283026 0.015448201 0.07000014 -0.057052985 -0.0065228385 0.048001066 0.064756334
-0.017589323 -0.080218084 0.08069827 0.06540504 0.0847897 0.02491573 -0.0098825665 0.08370343
0.043940797 -0.047678337 -0.07564236 -0.060633194 0.019905452 0.023561575 -0.037551418 0.057377096
-0.05463848 -0.026559774 0.016707933 0.047466837 0.006511859 -0.042669266 0.04457358 -0.087825
-0.057569813 -0.007814539 0.023835808 -0.08029812 -0.05485469 0.033681218 -0.053801347 0.03778876
-0.033213455 0.07818404 -0.008039659 -0.061924163 -0.014874276 -0.044486977 -0.06856435 -0.036116924
-0.07810152 -0.051728707 0.033409454 0.007174595 0.030369282 -0.023305086 0.079140134 -0.047471143
0.010496031 -0.023952054 -0.062102675 -0.024862222 0.038413525 0.016182465 0.016473718 -0.030021386
-0.012355429 -5.0269104e-05 -0.02796516 0.028540269 -0.040141724 0.061382446 -0.07583183 -0.03300988
0.05441785 -0.021315858 0.01267511 0.0011167657 0.076444596 -0.04053249 0.010086834 0.051328756

model.7.bias f4 [20]
00000000: bdce 5cbd 7a19 94bc de87 003d afe9 e43b
00000010: 1ac4 d43c 2393 c1bc de78 debc efc2 a93d
00000020: b9c2 62bc a570 a9bc 018b 8a3d 3462 263d
00000030: a3b4 9a3d ad2d f33b 79ba e13a caf0 80bd
00000040: 22a6 023d 5ccf 9abb 692e 7f3d aa8b 573d
-0.0539081 -0.018078554 0.031379573 0.006985865 0.025972415 -0.02362973 -0.027157243 0.08289134
-0.013840371 -0.020683596 0.06764794 0.040620998 0.07553985 0.0074212165 0.0017221711 -0.06295927
0.031896718 -0.004724426 0.06230012 0.05262343
